X_train shape: (60000, 1, 28, 28)
60000 train samples
10000 test samples
____________________________________________________________________________________________________
Layer (type)                       Output Shape        Param #     Connected to
====================================================================================================
conv1_1 (Convolution2D)            (None, 32, 26, 26)  320         convolution2d_input_1[0][0]
____________________________________________________________________________________________________
conv1_2 (Convolution2D)            (None, 32, 24, 24)  9248        conv1_1[0][0]
____________________________________________________________________________________________________
pool1 (MaxPooling2D)               (None, 32, 12, 12)  0           conv1_2[0][0]
____________________________________________________________________________________________________
conv2 (Convolution2D)              (None, 64, 10, 10)  18496       pool1[0][0]
____________________________________________________________________________________________________
pool2 (MaxPooling2D)               (None, 64, 5, 5)    0           conv2[0][0]
____________________________________________________________________________________________________
flatten_1 (Flatten)                (None, 1600)        0           pool2[0][0]
____________________________________________________________________________________________________
fc1 (Dense)                        (None, 128)         204928      flatten_1[0][0]
____________________________________________________________________________________________________
output (Dense)                     (None, 10)          1290        fc1[0][0]
====================================================================================================
Total params: 234282
____________________________________________________________________________________________________
Train on 60000 samples, validate on 10000 samples
Epoch 1/10
  128/60000 [..............................] - ETA: 293s - loss: 2.3599 - acc: 0.0859
…
